Save_model/interaction_model_enen.bin (torch, 4127 bytes, 3 tensors)

weight f4 [11, 43]
00000000: 0aab 18bd a11e 6fbd 68f0 203e ce49 9cbc
00000010: c0de 9f3d 43cc c33c 2349 0bbd 383e 82bd
00000020: f1a1 7c3d 2f9f 693e 8a98 ef3d c7be 143e
00000030: 2945 173e a548 8a3c b166 babc caa5 8d3e
00000040: 7df8 a13e 05e7 56be ceae c8bc 8d75 193e
00000050: dee2 803e 11e3 9c3d 505d 8fbe 6fb2 bf3d
00000060: 7a51 43be 5d88 0abe 0b4f 1a3e 5205 dabd
00000070: a03c d1bd 7dd3 a6be 8938 09be e881 45bd
00000080: 8f4e 8ebd ff57 13be cb2f 313e 81ae fe3d
00000090: 3f42 323e b122 a43e 01c0 e93e 7eff 3fbe
000000a0: cd95 de3d b6df e03d e126 93be f76e 203f
000000b0: f422 01bf 7271 8cbe 7327 13bd 8ed9 d0be
000000c0: e541 b3bd d637 1f3e 865d 9cbd 07eb c83d
000000d0: 7766 1ebd 0c73 d63c 2c0d 7bbe d8ff 02be
000000e0: 8a2f 95be 603d 7dbd 5d12 49be 943e c83d
000000f0: 1286 81bc b626 03be a444 5d3d 9e7f 233e
00000100: e546 043f 427a 5bba 041d fe3d ecc3 89be
00000110: 166d 4cbe 46f7 03be 5850 373d 6edf 8e3e
00000120: 7c96 09be 1c7a 783e 4c4a 943e d978 c23d
00000130: 63bb 1cbd 8130 37be 5d64 0abe 3240 34bc
00000140: 03e3 88bd c89e c7bd 2f0a 113a b14f 8dbe
00000150: b0e6 11be 9c67 03be 0add 1d3f 2b50 a93d
00000160: 8787 273f acd9 bf3e a765 083f ce95 203d
00000170: e62d e9be c415 f9be 99d2 f3bd eddc ecbe
00000180: 5018 d9be 8727 cabe 1344 a2bd 5cb3 10be
00000190: 0941 1abe 0297 c8be fac5 dbbd 6e34 593e
000001a0: 3366 2b3d 8f02 29bf 12d5 0dbf 398f 1b3f
000001b0: 1860 2d3f bda1 03bd d171 bc3e ce0d 6a3e
000001c0: 192e bebe 7be6 36bf 0c32 a2bd 7b0c 70be
000001d0: 891d e1be f4ac fdbd b4a1 1cbe 9852 75be
000001e0: 5003 9c3d 42ce 14be 7507 50bd 0ddf c73d
000001f0: c3b8 60be c2f6 03bd a6bf 94be dfaa 8ebd
00000200: ecd7 da3f ac6c 5d3e 9de9 07be ab9e 97bc
00000210: 4803 88be fcb2 7dbe b4a3 b0bd a1e4 10bf
00000220: 43be ab3c 2f44 8fbd fe1d 223e b7bb 403e
00000230: 6dd3 b83e 2488 b73d 58f7 0fbe fa47 02be
00000240: 08eb 82be e1ab 02be c2ac d0be f6d5 903d
00000250: e404 553c c6c7 133e ae22 b43d 69cc 163c
00000260: 9c15 7bbe 5db7 0cbe 0b1e 643e fa4f e13d
00000270: b13e 763d d0f6 1a3e f383 533d 0372 bdbd
00000280: 56a1 c33d 7532 07bd 6dcc 093e 792e 923e
00000290: 0329 1fbd e968 103e 75a1 8bbb 0cad fa3d
000002a0: 1767 99be b1ca 933d 221b 903d 4ea1 a6bd
000002b0: 1ad8 84bc eb70 58be 794b 38be 0dbc d3bd
000002c0: eff5 7dbc 49eb 88bd f2fd 1f3d 2e09 c53d
000002d0: 9d9f 79be 467e cb3c f8cf 853e 277e b3be
000002e0: ac1d c43d 6a58 7c3d 39c9 563d 47fb 9f3d
000002f0: 3be4 443e 1779 6f3d 2774 cabd 276c d1bd
00000300: 9643 123e 8f2c b23e 00f3 0abe 11a2 96bc
00000310: a16b 403d aa0d 323e c4c6 f63b 8e9f 8ebe
00000320: 4e14 08be 8515 b2be ae13 b0bd 7738 84be
00000330: 9240 813e b707 c0bd 3f69 813d 791f b7bc
00000340: 53a2 1c3d 226d c53d 7866 bdbd 3869 44bd
00000350: ce3f 16be 0e2c a13e 907e 16bd 284e 49bf
00000360: 6bdf 05bf 4633 c1be 3dc5 e4be fe36 74be
00000370: 8867 afbe 4391 77ba 9047 ee3d 42d9 a73e
00000380: 669d 333e 1ec4 9abb b281 4b3e cafb 84be
00000390: 56fa a639 a9a8 86be 47c5 81bd 107f c6be
000003a0: f7bf b3be fc2a 4cbe d228 c6bd 9407 0bbf
000003b0: 3de4 19bf 7972 5bbf 796e 41bf fb32 1fbf
000003c0: db2a c9be 7efd cbbe 13f3 0bbe 6476 9a3d
000003d0: 0ce6 08be 9471 013c e510 60bd 8e95 b83e
000003e0: 0c1b 103c 4d59 91bd ea42 5d3e 6608 1fbe
000003f0: 7b6a 90be 93f6 5dbd 3186 46bf 56e2 00bf
-0.03727249 -0.05837882 0.15716708 -0.019078162 0.07806158 0.02390111 -0.034005295 -0.063595235
0.061677877 0.2281463 0.116990164 0.14525901 0.14772476 0.016880343 -0.022754045 0.2766555
0.31634894 -0.20986564 -0.024497416 0.14986248 0.25173086 0.07660497 -0.2800088 0.093602054
-0.1907405 -0.13528581 0.15069215 -0.10645546 -0.102166414 -0.32583228 -0.13400473 -0.04821959
-0.069485776 -0.14389037 0.17303388 0.12435628 0.17408083 0.32057717 0.456543 -0.18749806
0.10868416 0.109801695 -0.287406 0.6266932 -0.5044396 -0.27430302 -0.035926294 -0.4079098
-0.08752803 0.15548643 -0.07635026 0.09810453 -0.038671937 0.026177905 -0.24516743 -0.12792909
-0.29137832 -0.06182611 -0.19635911 0.09777561 -0.015811 -0.12807736 0.05402054 0.15966651
0.51670676 -0.0008372405 0.12407878 -0.2690729 -0.19963488 -0.12887296 0.044754356 0.27904838
-0.13436311 0.24265331 0.28962934 0.09495706 -0.038264643 -0.17889597 -0.13514848 -0.0110016335
-0.06683924 -0.09747082 0.00055328285 -0.27599862 -0.14248157 -0.12832493 0.61665404 0.08267244
0.65441173 0.37470758 0.5328011 0.039205365 -0.4554283 -0.48649418 -0.11905403 -0.46262303
-0.4240136 -0.39483282 -0.079231404 -0.1413092 -0.15063871 -0.3917771 -0.107311204 0.21211407
0.04184551 -0.6601953 -0.55403244 0.60765415 0.6772475 -0.032136668 0.36805585 0.22856829
-0.37144545 -0.71445435 -0.07919702 -0.23442261 -0.43967846 -0.12386504 -0.1529606 -0.23957288
0.07617819 -0.14531806 -0.05078836 0.097593404 -0.21945481 -0.03221775 -0.29052466 -0.06966185
1.7097144 0.21623486 -0.1327271 -0.018508276 -0.26565003 -0.24775308 -0.08624974 -0.5659886
0.020964747 -0.06995427 0.15831754 0.18821608 0.36098805 0.08961514 -0.14059198 -0.1272277
-0.2556994 -0.12760879 -0.40756804 0.0707206 0.013001654 0.14431676 0.08795677 0.009204009
-0.24519962 -0.13741823 0.22277085 0.110015824 0.06011838 0.15133214 0.05163951 -0.09250262
0.09552257 -0.033007104 0.13456888 0.2855108 -0.03885747 0.1410252 -0.0042611905 0.12240037
-0.29961464 0.07216395 0.07036425 -0.08136235 -0.016216327 -0.21136825 -0.1799754 -0.10338602
-0.01550053 -0.06685502 0.03906054 0.096208915 -0.24377294 0.024840485 0.2613523 -0.35057184
0.09575972 0.061607756 0.052437995 0.07811599 0.19227688 0.05846509 -0.098854356 -0.102257065
0.14283594 0.3479962 -0.1356926 -0.018387826 0.046977643 0.17388025 0.007531019 -0.27856106
-0.13288996 -0.34782043 -0.085975036 -0.2582433 0.25244576 -0.093764715 0.06318902 -0.022353875
0.038240742 0.09639956 -0.0924806 -0.047951907 -0.14672777 0.31478924 -0.036741793 -0.7863488
-0.52294034 -0.3773443 -0.4468173 -0.23849103 -0.34258676 -0.0009443948 0.11634743 0.32782942
0.17540511 -0.004723086 0.19873694 -0.2597335 0.00031848502 -0.26300552 -0.06336456 -0.38768816
-0.35107395 -0.19938272 -0.096757546 -0.5430844 -0.6011389 -0.85721546 -0.7555919 -0.62187165
-0.3929051 -0.39841837 -0.13666944 0.075421125 -0.13369006 0.007900614 -0.054703612 0.360516
0.008795511 -0.07097111 0.21607557 -0.15530547 -0.28206238 -0.05419023 -0.7754851 -0.5034536

bias f4 [11]
00000000: 4f7a df3d 17e6 753d d639 febe 3b1c b7bd
00000010: f922 e2bd 0806 063f 5396 193e 1778 493f
00000020: fd5c aebd 26f7 aebe cc17 c23d
0.109120004 0.060033884 -0.496535 -0.089409314 -0.11041827 0.5235295 0.1499875 0.7869887
-0.0851383 -0.34172934 0.09477195

weight f4 [1, 11]
00000000: 8c7f 113d 8dc0 9bbf d8bb d43f 85e6 c4be
00000010: 119b a2be 4285 1ac0 ef68 543e b3f1 f3bf
00000020: 5fc0 c9be e6b3 ca3f 6d32 143f
0.03552203 -1.2168137 1.6619825 -0.38457122 -0.3175893 -2.4143834 0.20743154 -1.9058136
-0.3940458 1.5836151 0.57889444
